…
+-------+------------------------+----------+

[INFO] Curriculum Manager:  <CurriculumManager> contains 0 active terms.
+----------------------+
| Active Curriculum Terms |
+-----------+----------+
|   Index   | Name     |
+-----------+----------+
+-----------+----------+

[INFO]: Completed setting up the environment...
encoder cfg: dict_keys(['seed', 'device', 'num_steps_per_env', 'max_iterations', 'empirical_normalization', 'policy', 'algorithm', 'clip_actions', 'save_interval', 'experiment_name', 'run_name', 'logger', 'neptune_project', 'wandb_project', 'resume', 'load_run', 'load_checkpoint', 'encoder'])
Encoder MLP: Sequential(
  (0): Linear(in_features=300, out_features=256, bias=True)
  (1): ELU(alpha=1.0)
  (2): Linear(in_features=256, out_features=128, bias=True)
  (3): ELU(alpha=1.0)
  (4): Linear(in_features=128, out_features=3, bias=True)
)
ActorCritic.__init__ got unexpected arguments, which will be ignored: ['class_name', 'noise_std_type']
Actor MLP: Sequential(
  (0): Linear(in_features=36, out_features=512, bias=True)
  (1): ELU(alpha=1.0)
  (2): Linear(in_features=512, out_features=256, bias=True)
  (3): ELU(alpha=1.0)
  (4): Linear(in_features=256, out_features=128, bias=True)
  (5): ELU(alpha=1.0)
  (6): Linear(in_features=128, out_features=6, bias=True)
)
Critic MLP: Sequential(
  (0): Linear(in_features=363, out_features=512, bias=True)
  (1): ELU(alpha=1.0)
  (2): Linear(in_features=512, out_features=256, bias=True)
  (3): ELU(alpha=1.0)
  (4): Linear(in_features=256, out_features=128, bias=True)
  (5): ELU(alpha=1.0)
  (6): Linear(in_features=128, out_features=1, bias=True)
)
Setting seed: 42
################################################################################
                      [1m Learning iteration 0/3000 [0m                       

                       Computation: 32229 steps/s (collection: 2.862s, learning 0.188s)
               Value function loss: 6.5784
                    Surrogate loss: 0.0122
             Mean action noise std: 1.0046
…
